NIN_mnist.py: 

 Layer (type)                Output Shape              Param #   
=================================================================
 input_1 (InputLayer)        [(None, 224, 224, 1)]     0         
                                                                 
 conv1 (Conv2D)              (None, 56, 56, 96)        11712     
                                                                 
 conv1_mlp1 (Conv2D)         (None, 56, 56, 96)        9312      
                                                                 
 conv1_mlp2 (Conv2D)         (None, 56, 56, 96)        9312      
                                                                 
 pool1 (MaxPooling2D)        (None, 28, 28, 96)        0         
                                                                 
 conv2 (Conv2D)              (None, 28, 28, 256)       614656    
                                                                 
 conv2_mlp1 (Conv2D)         (None, 28, 28, 256)       65792     
                                                                 
 conv2_mlp2 (Conv2D)         (None, 28, 28, 256)       65792     
                                                                 
 pool2 (MaxPooling2D)        (None, 14, 14, 256)       0         
                                                                 
 conv3 (Conv2D)              (None, 14, 14, 384)       885120    
                                                                 
 conv3_mlp1 (Conv2D)         (None, 14, 14, 384)       147840    
                                                                 
 conv3_mlp2 (Conv2D)         (None, 14, 14, 384)       147840    
                                                                 
 pool3 (MaxPooling2D)        (None, 7, 7, 384)         0         
                                                                 
 global_avg_pool (GlobalAve  (None, 384)               0         
 ragePooling2D)                                                  
                                                                 
 predictions (Activation)    (None, 384)               0         
                                                                 
=================================================================
Total params: 1957376 (7.47 MB)
Trainable params: 1957376 (7.47 MB)
Non-trainable params: 0 (0.00 Byte)
_________________________________________________________________
Epoch 1/10
938/938 [==============================] - 590s 628ms/step - loss: 0.8454 - accuracy: 0.7549 - val_loss: 0.1836 - val_accuracy: 0.9432
…
